…
WARNING:tensorflow:From /home/kumar/anaconda3/lib/python3.6/site-packages/keras/backend/tensorflow_backend.py:1290: calling reduce_mean (from tensorflow.python.ops.math_ops) with keep_dims is deprecated and will be removed in a future version.
Instructions for updating:
keep_dims is deprecated, use keepdims instead
____________________________________________________________________________________________________
Layer (type)                     Output Shape          Param #     Connected to
====================================================================================================
input_1 (InputLayer)             (None, 9)             0
____________________________________________________________________________________________________
input_2 (InputLayer)             (None, 9)             0
____________________________________________________________________________________________________
dense_1 (Dense)                  (None, 1024)          10240       input_1[0][0]
____________________________________________________________________________________________________
dense_2 (Dense)                  (None, 1024)          10240       input_2[0][0]
____________________________________________________________________________________________________
concatenate_1 (Concatenate)      (None, 2048)          0           dense_1[0][0]
                                                                   dense_2[0][0]
____________________________________________________________________________________________________
activation_1 (Activation)        (None, 2048)          0           concatenate_1[0][0]
____________________________________________________________________________________________________
dense_3 (Dense)                  (None, 160000)        327840000   activation_1[0][0]
____________________________________________________________________________________________________
batch_normalization_1 (BatchNorm (None, 160000)        640000      dense_3[0][0]
____________________________________________________________________________________________________
activation_2 (Activation)        (None, 160000)        0           batch_normalization_1[0][0]
____________________________________________________________________________________________________
reshape_1 (Reshape)              (None, 50, 50, 64)    0           activation_2[0][0]
____________________________________________________________________________________________________
up_sampling2d_1 (UpSampling2D)   (None, 100, 100, 64)  0           reshape_1[0][0]
____________________________________________________________________________________________________
conv2d_1 (Conv2D)                (None, 100, 100, 64)  102464      up_sampling2d_1[0][0]
____________________________________________________________________________________________________
activation_3 (Activation)        (None, 100, 100, 64)  0           conv2d_1[0][0]
____________________________________________________________________________________________________
up_sampling2d_2 (UpSampling2D)   (None, 200, 200, 64)  0           activation_3[0][0]
____________________________________________________________________________________________________
conv2d_2 (Conv2D)                (None, 200, 200, 4)   6404        up_sampling2d_2[0][0]
____________________________________________________________________________________________________
activation_4 (Activation)        (None, 200, 200, 4)   0           conv2d_2[0][0]
====================================================================================================
Total params: 328,609,348
Trainable params: 328,289,348
Non-trainable params: 320,000
____________________________________________________________________________________________________
generator:  None
WARNING:tensorflow:From /home/kumar/anaconda3/lib/python3.6/site-packages/keras/backend/tensorflow_backend.py:1205: calling reduce_prod (from tensorflow.python.ops.math_ops) with keep_dims is deprecated and will be removed in a future version.
Instructions for updating:
keep_dims is deprecated, use keepdims instead
____________________________________________________________________________________________________
Layer (type)                     Output Shape          Param #     Connected to
====================================================================================================
input_4 (InputLayer)             (None, 200, 200, 4)   0
____________________________________________________________________________________________________
conv2d_3 (Conv2D)                (None, 200, 200, 64)  6464        input_4[0][0]
____________________________________________________________________________________________________
activation_5 (Activation)        (None, 200, 200, 64)  0           conv2d_3[0][0]
____________________________________________________________________________________________________
max_pooling2d_1 (MaxPooling2D)   (None, 100, 100, 64)  0           activation_5[0][0]
____________________________________________________________________________________________________
conv2d_4 (Conv2D)                (None, 96, 96, 128)   204928      max_pooling2d_1[0][0]
____________________________________________________________________________________________________
activation_6 (Activation)        (None, 96, 96, 128)   0           conv2d_4[0][0]
____________________________________________________________________________________________________
max_pooling2d_2 (MaxPooling2D)   (None, 48, 48, 128)   0           activation_6[0][0]
____________________________________________________________________________________________________
flatten_1 (Flatten)              (None, 294912)        0           max_pooling2d_2[0][0]
____________________________________________________________________________________________________
input_3 (InputLayer)             (None, 9)             0
____________________________________________________________________________________________________
dense_5 (Dense)                  (None, 200)           58982600    flatten_1[0][0]
____________________________________________________________________________________________________
dense_4 (Dense)                  (None, 200)           2000        input_3[0][0]
____________________________________________________________________________________________________
concatenate_2 (Concatenate)      (None, 400)           0           dense_5[0][0]
                                                                   dense_4[0][0]
____________________________________________________________________________________________________
activation_7 (Activation)        (None, 400)           0           concatenate_2[0][0]
____________________________________________________________________________________________________
dense_6 (Dense)                  (None, 1)             401         activation_7[0][0]
____________________________________________________________________________________________________
activation_8 (Activation)        (None, 1)             0           dense_6[0][0]
====================================================================================================
Total params: 59,196,393
Trainable params: 59,196,393
Non-trainable params: 0
____________________________________________________________________________________________________
discriminator:  None
____________________________________________________________________________________________________
Layer (type)                     Output Shape          Param #     Connected to
====================================================================================================
input_1 (InputLayer)             (None, 9)             0
____________________________________________________________________________________________________
input_2 (InputLayer)             (None, 9)             0
____________________________________________________________________________________________________
dense_1 (Dense)                  (None, 1024)          10240       input_1[0][0]
____________________________________________________________________________________________________
dense_2 (Dense)                  (None, 1024)          10240       input_2[0][0]
____________________________________________________________________________________________________
concatenate_1 (Concatenate)      (None, 2048)          0           dense_1[0][0]
                                                                   dense_2[0][0]
____________________________________________________________________________________________________
activation_1 (Activation)        (None, 2048)          0           concatenate_1[0][0]
____________________________________________________________________________________________________
dense_3 (Dense)                  (None, 160000)        327840000   activation_1[0][0]
____________________________________________________________________________________________________
batch_normalization_1 (BatchNorm (None, 160000)        640000      dense_3[0][0]
____________________________________________________________________________________________________
activation_2 (Activation)        (None, 160000)        0           batch_normalization_1[0][0]
____________________________________________________________________________________________________
reshape_1 (Reshape)              (None, 50, 50, 64)    0           activation_2[0][0]
____________________________________________________________________________________________________
up_sampling2d_1 (UpSampling2D)   (None, 100, 100, 64)  0           reshape_1[0][0]
____________________________________________________________________________________________________
conv2d_1 (Conv2D)                (None, 100, 100, 64)  102464      up_sampling2d_1[0][0]
____________________________________________________________________________________________________
activation_3 (Activation)        (None, 100, 100, 64)  0           conv2d_1[0][0]
____________________________________________________________________________________________________
up_sampling2d_2 (UpSampling2D)   (None, 200, 200, 64)  0           activation_3[0][0]
____________________________________________________________________________________________________
conv2d_2 (Conv2D)                (None, 200, 200, 4)   6404        up_sampling2d_2[0][0]
____________________________________________________________________________________________________
activation_4 (Activation)        (None, 200, 200, 4)   0           conv2d_2[0][0]
____________________________________________________________________________________________________
model_2 (Model)                  (None, 1)             59196393    activation_4[0][0]
                                                                   input_2[0][0]
====================================================================================================
Total params: 387,805,741
Trainable params: 328,289,348
Non-trainable params: 59,516,393
____________________________________________________________________________________________________
generator-discriminator:  None
…
